src/code/tweets/fauci_classifierV01.pt (torch_old, 325591 bytes, 4 tensors)

0.weight f4 [400, 200]
0.02578965 0.06825463 0.05837103 -0.031084877 0.010823592 0.01754796 -0.05137375 0.07929463
0.047072742 -0.065078765 -0.003401443 0.054744553 -0.066365115 -0.045825027 0.041198332 0.028095823
-0.016611563 -0.067037605 0.05104784 -0.04157268 -0.026179267 -0.054374125 -0.041665345 0.027945314
0.006937805 0.047191497 -0.07492102 -0.08990543 -0.032710653 0.037832238 -0.046086904 -0.09283646
0.041913845 -0.014576507 -0.07233273 -0.020766344 -0.022480616 0.00079246686 -0.048824064 0.040894974
-0.027836807 -0.09021739 0.05149198 0.092111215 0.018607192 -0.034086317 0.06416005 0.009513124
0.0037231692 0.048646033 -0.009079832 -0.028388077 -0.007828901 0.044539012 -0.03191541 -0.038082823
-0.019170828 -0.04285484 -0.05091837 0.08796232 -0.052014325 -0.06622945 0.0302174 -0.0022250833
-0.0700815 -0.036803916 0.113683455 0.01775028 0.055622198 0.016156519 0.027761932 0.061254192
0.020487672 -0.07486849 -0.04063926 -0.021770172 0.06929026 -0.09492356 -0.056732427 0.09596984
0.092825696 -0.022317518 0.027468778 -0.043393657 0.049658746 0.035634756 -0.012041781 -0.0038790382
0.019279942 -0.041224588 0.02162103 -0.03614343 0.02673646 -0.066550896 -0.071663626 0.072475486
-0.015261842 -0.027859058 0.012376228 -0.09500993 -0.019207258 0.014676363 0.064092904 0.03715818
0.004315442 -0.03808019 0.06394112 -0.05088507 -0.027643807 -0.04995367 -0.038947493 -0.060964268
-0.10037219 -0.020479066 0.010437979 -0.012890067 0.008399377 -0.047062673 0.0034162484 -0.10197192
0.011453614 -0.031619515 -0.07823691 0.018425087 0.10596432 -0.042029623 -0.043730322 0.024317188
-0.049023215 0.07389798 -0.028328324 0.060639113 -0.0058814003 0.02842434 0.032599628 0.03428183
-0.046157125 -0.063921414 -0.074238956 0.0083979955 -0.12018184 -0.0347857 0.046254948 0.019337466
0.09241161 -0.008468658 0.0300896 0.03219172 -0.010950262 -0.023785163 0.0077352324 -0.010871709
0.08755153 0.006419762 -0.0323549 -0.04754462 -0.011117633 -0.0118873045 0.0024260005 -0.04979814
0.090190165 0.034039456 -0.048709344 0.04218955 0.04669073 -0.027340753 0.0016779574 -0.07150456
-0.022987256 0.015700098 -0.060709774 -0.04282289 -0.039906673 -0.047238667 0.01760363 0.10315001
0.10310162 -0.02023651 -0.028901856 0.08483187 0.043935746 -0.042725526 0.08154099 0.0022483517
0.01926977 0.003447553 -0.032880213 -0.07605008 -0.017515227 0.033232905 -0.062385634 -0.06464076
-0.016508432 0.046479184 0.05830511 -0.03981104 -0.030809384 0.009906024 0.0025067339 0.044384692
0.0043587945 0.04772925 0.0628337 -0.0060304897 0.064229175 0.07350023 -0.016651949 0.0338482
0.06045832 -0.0044156983 -0.042021565 0.035219826 -0.062282994 0.013160002 -0.017007161 0.0464359
-0.04894762 -0.031287935 -0.053782694 -0.05188793 -0.013721307 -0.044540543 0.055401094 0.010047402
0.030078366 -0.06610058 -3.531823e-05 -0.015243763 0.061620995 0.055705696 -0.041928045 -0.04788324
0.038512748 -0.004610586 0.002597539 0.04530008 0.016848732 -0.04134995 0.038652103 -0.057659727
0.014131367 0.052571904 0.045449905 0.04726432 0.033022035 -0.007839358 0.0077711167 -0.055604644
0.051144723 0.007561793 0.0008735986 0.045930624 0.046797786 0.017434452 -0.023330314 0.046101328
00000000: d144 d33c 15c9 8b3d 7616 6f3d b6a5 febc
00000010: 6f55 313c bdc0 8f3c 486d 52bd 3965 a23d
00000020: 59cf 403d 0448 85bd beea 5ebb d33b 603d
00000030: 6fea 87bd 06b3 3bbd 95bf 283d 3629 e63c
00000040: f914 88bc 034b 89bd 8a17 513d 1d48 2abd
00000050: e775 d6bc 67b7 5ebd 48a9 2abd 92ed e43c
00000060: 8756 e33b df4b 413d 3170 99bd 5720 b8bd
00000070: 9bfb 05bd faf5 1a3d 9fc5 3cbd 0b21 bebd
00000080: daad 2b3d 4dd2 6ebc 2f23 94bd 2e1e aabc
00000090: 4529 b8bc 8dbd 4f3a befb 47bd 7d81 273d
000000a0: 040a e4bc e5c3 b8bd 41e9 523d cea4 bc3d
000000b0: 1c6e 983c 189e 0bbd 5866 833d efdc 1b3c
000000c0: 6a00 743b 1041 473d 93c3 14bc 1d8e e8bc
000000d0: ca44 00bc 8a6e 363d bcb9 02bd bcfc 1bbd
000000e0: 240c 9dbc 8f88 2fbd c88f 50bd 9725 b43d
000000f0: f90c 55bd 4ea3 87bd 7b8a f73c b4d2 11bb
00000100: e486 8fbd b4bf 16bd dfd2 e83d 0969 913c
00000110: 1ad4 633d ad5a 843c fe6c e33c ade5 7a3d
00000120: c3d5 a73c a754 99bd 5a75 26bd 5c57 b2bc
00000130: 0de8 8d3d 4967 c2bd 4360 68bd d68b c43d
00000140: 661b be3d 3ad3 b6bc 3406 e13c 8cbd 31bd
00000150: f866 4b3d c0f5 113d e44a 45bc 7637 7ebb
00000160: f8f0 9d3c 1ddb 28bd 961e b13c 220b 14bd
00000170: 6c06 db3c d64b 88bd 61c4 92bd 076e 943d
00000180: ce0c 7abc ae38 e4bc aac5 4a3c 9194 c2bd
00000190: 8a58 9dbc 2175 703c 2443 833d 2d33 183d
000001a0: 8d68 8d3b f9f9 1bbd 90f3 823d dd6c 50bd
000001b0: 4475 e2bc 389c 4cbd 6887 1fbd abb5 79bd
000001c0: ef8f cdbd b7c3 a7bc 0f04 2b3c dc30 53bc
000001d0: 8a9d 093c cac4 40bd 23e3 5f3b a7d6 d0bd
000001e0: f0a7 3b3c 7783 01bd ac3a a0bd 35f0 963c
000001f0: d203 d93d 4127 2cbd 911e 33bd d734 c73c
00000200: 91cc 48bd d357 973d cd10 e8bc b860 783d
00000210: c3b8 c0bb 29da e83c 3087 053d 1b6b 0c3d
00000220: 410f 3dbd 3be9 82bd 980a 98bd bf97 093c
00000230: e621 f6bd 737b 0ebd d475 3d3d 9b69 9e3c
00000240: 4c42 bd3d 20c0 0abc 777e f63c 77db 033d
00000250: ba68 33bc 1ad9 c2bc d577 fd3b 411f 32bc
00000260: 374e b33d de5c d23b 9286 04bd 26be 42bd
00000270: bc26 36bc f8c2 42bc 89fd 1e3b 22f9 4bbd
00000280: 9fb5 b83d f56c 0b3d 7383 47bd f3ce 2c3d
00000290: c73e 3f3d b7f9 dfbc e8ee db3a fc70 92bd
000002a0: c54f bcbc 7e9d 803c d0aa 78bd 0e67 2fbd
000002b0: 2e75 23bd 557d 41bd 7d35 903c 5040 d33d
000002c0: f126 d33d 0ac7 a5bc 96c3 ecbc 55bc ad3d
000002d0: f8f5 333d f600 2fbd f6fe a63d 1559 133b
000002e0: a3db 9d3c 57f0 613b 67ad 06bd 25c0 9bbd
000002f0: 187c 8fbc 3a1f 083d 1488 7fbd 6062 84bd
00000300: b13c 87bc f560 3e3d 57d1 6e3d e710 23bd
00000310: f663 fcbc e04c 223c 0448 243b b9cc 353d
00000320: 38d4 8e3b bf7f 433d f4ae 803d 6a9b c5bb
00000330: 968a 833d 4a87 963d ab69 88bc 69a4 0a3d
00000340: 25a3 773d 90b1 90bb ce1e 2cbd aa42 103d
00000350: 741c 7fbd 0d9d 573c 9a52 8bbc 9233 3e3d
00000360: 4d7d 48bd c727 00bd 3e4b 5cbd 7088 54bd
00000370: 55cf 60bc 2570 36bd 42ec 623d dc9d 243c
00000380: e866 f63c be5f 87bd a922 14b8 fac0 79bc
00000390: 4c66 7c3d a82b 643d bebc 2bbd 3721 44bd
000003a0: 8bbf 1d3d 6614 97bb 793b 2a3b 948c 393d
000003b0: 5a06 8a3c 915e 29bd ab51 1e3d 9b2c 6cbd
000003c0: 4087 673c a355 573d ae29 3a3d 3b98 413d
000003d0: 1d42 073d a770 00bc daa4 fe3b b2c1 63bd
000003e0: 217d 513d ebc8 f73b 3602 653a c021 3c3d
000003f0: 09af 3f3d b2d2 8e3c 371f bfbc bfd4 3c3d

0.bias f4 [400]
0.008987918 0.03911394 0.091308795 -0.014394145 -0.013693714 -0.11262164 0.07016212 0.017095715
-0.043845132 -0.011764926 -0.02845518 -0.08262293 -0.0061565074 -0.096230686 0.056472365 -0.10347196
-0.15230146 -0.0878405 0.13063213 0.046203867 0.028199434 0.11519824 0.017825764 0.1066032
0.03855867 0.0281495 -0.021653676 0.064629495 -0.041722327 -0.013973441 0.00754746 0.018286536
0.09311662 -0.037137732 -0.0723369 0.094866574 -0.12110274 -0.063283816 0.15812641 0.0103307655
-0.007807327 -0.024559254 -0.025856443 -0.05613042 -0.036145944 0.030416986 0.03491041 0.007165573
0.018388188 -0.013089721 0.040522583 0.084944926 0.15473498 -0.03416764 -0.1436505 -0.0806717
0.008503996 0.039180946 0.00034368996 0.08529068 -0.041020595 -0.061685745 -0.059548274 -0.038443122
-0.046699118 -0.12838447 0.015583856 0.04608545 -0.08138593 0.16439703 -0.07622744 0.104635835
-0.03233559 -0.08296562 -0.050182886 -0.068504214 -0.10155737 0.0697405 -0.04149356 -0.069317035
-0.04416509 0.026399884 0.06580634 0.033190258 -0.120257184 0.010415964 -0.03166669 0.1059582
0.10957282 -0.028982064 0.022881728 0.014409729 0.104468115 0.025891565 0.032833744 0.05668128
-0.06057883 0.021794906 0.036228474 -0.04094566 0.11942254 -0.015660543 -0.13818601 0.06949558
-0.0385256 0.017038338 0.1085832 -0.008684237 0.025273116 -0.034832347 -0.062272597 0.07589968
0.014803203 -0.13616993 8.042651e-05 -0.053086553 0.012149557 -0.11821136 0.00065760664 -0.05279425
-0.037284974 0.0035449932 -0.06310164 0.034691893 0.038362063 0.060548354 -0.0059344224 0.038448423
0.1272436 0.05933547 -0.07222879 -0.0048183408 -0.057905346 0.08612562 0.055509545 -0.1818354
0.1305127 -0.044174645 -0.12651408 0.08214439 -0.06038804 0.028756721 0.08477088 0.01605566
0.08504599 -0.0019568475 0.020402813 0.026752405 0.053593013 0.05714898 -0.00083338906 0.13454609
-0.11500697 0.054183584 0.14708802 0.0019089311 -0.019372707 0.0040063816 0.020335477 -0.037887804
-0.09746055 0.098170705 0.10822229 0.03366377 -0.15344992 0.12825924 -0.08694795 -0.0018766111
0.004149889 0.06614732 0.019485433 -0.11352182 -0.005693576 -0.05145459 0.08752563 -0.050330184
0.05302793 0.11369683 -0.104433544 -0.10134785 -0.027754234 0.08796401 -0.0005014878 -0.090844825
-0.13426511 0.09339726 0.0042607314 -0.0850393 -0.035214394 -0.06837502 0.16129337 -0.12524034
0.10032846 -0.05637214 0.112291485 -0.037054908 -0.07936559 -0.0636514 -0.04676961 0.06956698
0.10424223 -0.11760193 -0.15841004 0.04391444 0.028110363 0.008331396 -0.15262246 0.026236862
-0.06719338 -0.015286019 -0.08074429 -0.012321205 0.016225742 0.119274646 -0.035814684 -0.04265248
0.031434357 -0.0040016295 -0.030252017 -0.09925009 -0.035309467 0.10794563 0.22347681 0.025714792
-0.052634012 -0.028340295 0.18303888 -0.040903065 0.018980727 -0.06084847 -0.046440642 -0.006134484
-0.021752983 -0.13044973 0.047878616 0.041818302 -0.034622636 0.11295294 0.025786575 0.11167314
0.060010377 -0.031817935 0.023313027 -0.064250514 -0.07901492 -0.07993916 0.05258894 0.003237365
-0.05589251 -0.018823853 0.07657574 -0.097549394 0.05289569 0.086935684 -0.091335095 -0.0011800627
00000000: 0f42 133c f035 203d 1b00 bb3d 6cd5 6bbc
00000010: 995b 60bc 2da6 e6bd 28b1 8f3d 500c 8c3c
00000020: f496 33bd adc1 40bc d61a e9bc 3636 a9bd
00000030: 87bc c9bb 9814 c5bd 914f 673d 1be9 d3bd
00000040: eaf4 1bbe b8e5 b3bd 6ec4 053e 4440 3d3d
00000050: 8002 e73c 0eed eb3d 5607 923c c752 da3d
00000060: b2ef 1d3d c899 e63c 0d63 b1bc 785c 843d
00000070: 08e5 2abd dcf0 64bc af50 f73b a5cd 953c
00000080: edb3 be3d bc1d 18bd 5e25 94bd 6849 c23d
00000090: b704 f8bd f29a 81bd e4eb 213e 5f42 293c
000000a0: 9bd4 ffbb 7d30 c9bc e4d0 d3bc 03e9 65bd
000000b0: c50d 14bd 0b2d f93c 38fe 0e3d 2fcd ea3b
000000c0: d3a2 963c 4576 56bc 02fb 253d 9bf7 ad3d
000000d0: d972 1e3e 5ef3 0bbd 1e19 13be 3437 a5bd
000000e0: 5854 0b3c 337c 203d 4931 b439 e1ac ae3d
000000f0: 3605 28bd 31aa 7cbd e4e8 73bd 8976 1dbd
00000100: 9347 3fbd 3877 03be 6e53 7f3c 19c4 3c3d
00000110: abad a6bd b257 283e 221d 9cbd 504b d63d
00000120: 5372 04bd e1e9 a9bd 928c 4dbd f04b 8cbd
00000130: 4ffd cfbd 1bd4 8e3d 27f5 29bd 17f6 8dbd
00000140: 74e6 34bd 9244 d83c 79c5 863d 82f2 073d
00000150: 6649 f6bd b8a7 2a3c eeb4 01bd 9d00 d93d
00000160: b767 e03d cb6b edbc 7672 bb3c c916 6c3c
00000170: 61f3 d53d 8c1a d43c ad7c 063d a12a 683d
00000180: 8221 78bd 3b8b b23c 4f64 143d a3b6 27bd
00000190: ce93 f43d 8a4a 80bc a280 0dbe b353 8e3d
000001a0: 05cd 1dbd fc93 8b3c de60 de3d 5448 0ebc
000001b0: 9109 cf3c 5dac 0ebd 8d11 7fbd 4b71 9b3d
000001c0: 2289 723c 2170 0bbe a7aa a838 4971 59bd
000001d0: ef0e 473c cc18 f2bd 3c63 2c3a c93e 58bd
000001e0: 21b8 18bd 1e53 683b 6f3b 81bd 1619 0e3d
000001f0: 8a21 1d3d 8d01 783d 8b75 c2bb 187c 1d3d
00000200: 254c 023e c009 733d b0ec 93bd 2ce3 9dbb
00000210: 282e 6dbd a162 b03d fa5d 633d 0f33 3abe
00000220: 1fa5 053e 79f0 34bd e88c 01be 513b a83d
00000230: 7359 77bd 3793 eb3c 5b9c ad3d 2987 833c
00000240: 982c ae3d 743e 00bb cd23 a73c dc27 db3c
00000250: 5984 5b3d 0d15 6a3d cb77 5aba 73c6 093e
00000260: c688 ebbd 9bef 5d3d 3e9e 163e 1935 fa3a
00000270: 83b3 9ebc f747 833b 9696 a63c 3e30 1bbd
00000280: 6699 c7bd b90d c93d a6a3 dd3d 05e3 093d
00000290: fa21 1dbe 6456 033e c411 b2bd 9ff8 f5ba
000002a0: cbfb 873b 3f78 873d ea9f 9f3c 217e e8bd
000002b0: 2d91 babb 0cc2 52bd a340 b33d 0627 4ebd
000002c0: d133 593d e2d9 e83d 41e1 d5bd 768f cfbd
000002d0: d95c e3bc 7a26 b43d 4776 03ba da0c babd
000002e0: cb7c 09be 1047 bf3d 9b9d 8b3b 1629 aebd
000002f0: f83c 10bd 3408 8cbd 172a 253e 013f 00be
00000300: 0279 cd3d 79e6 66bd 14f9 e53d e3c6 17bd
00000310: 6d8a a2bd aa5b 82bd 7e91 3fbd 2279 8e3d
00000320: f37c d53d 48d9 f0bd 3e36 22be a1df 333d
00000330: b447 e63c 6880 083c 1049 1cbe b0ee d63c
00000340: af9c 89bd 3672 7abc 435d a5bd e1de 49bc
00000350: d9eb 843c 4446 f43d 6bb2 12bd 5eb4 2ebd
00000360: 50c1 003d 1a20 83bb 14d3 f7bc a243 cbbd
00000370: a9a0 10bd 9912 dd3d 1bd7 643e d4a7 d23c
00000380: c396 57bd e829 e8bc 8b6e 3b3e f989 27bd
00000390: 787d 9b3c 3f3c 79bd 8b38 3ebd c803 c9bb
000003a0: 5033 b2bc 9d94 05be 5e1c 443d ab49 2b3d
000003b0: 77d0 0dbd df53 e73d 5e3e d33c e3b4 e43d
000003c0: 71cd 753d 8653 02bd f6fa be3c c695 83bd
000003d0: 93d2 a1bd 24b7 a3bd 8067 573d f929 543b
000003e0: 8bef 64bd 7b34 9abc bed3 9c3d fac7 c7bd
000003f0: 27a9 583d 560b b23d e50d bbbd 55ac 9aba

2.weight f4 [2, 400]
0.19016077 -0.012741009 -0.44372544 0.07315226 0.2439253 0.23433284 -0.75989085 -0.3872258
0.4472482 -0.2182642 0.11664712 -0.014042874 -0.19189009 0.5842499 -0.176429 0.19692731
0.4182193 0.1584281 -0.59904295 -0.2925021 -0.036675442 -0.61420816 -0.62477446 -0.61936456
-0.21349458 -0.29669857 0.31809655 -0.16572088 0.24038477 -0.10032479 -0.36674535 -0.17248373
-0.50031686 -0.18330227 0.3180355 -0.4556087 0.5909117 -0.0714352 -0.8666167 -0.2346979
-0.26109827 0.23345955 0.5478357 0.5758202 -0.15680574 -0.13950576 0.07713976 -0.042048387
-0.24639246 -0.19392824 -0.7796003 -0.4227482 -0.8231326 0.11973504 0.6040344 0.4870864
-0.51362187 -0.5966606 -0.42965633 -0.25734547 -0.30905908 0.06430376 0.46213675 -0.045005776
0.33023125 0.3735375 -0.27222502 -0.35670024 0.06107998 -0.80463415 -0.09982408 -0.57800645
-0.22155796 0.39144418 -0.13581087 0.37205452 0.2606659 -0.5348791 -0.07228892 0.2582519
0.31097442 -0.6525178 -0.20135896 -0.077507764 0.27825037 -0.20198962 0.055424467 -0.53181577
-0.48189813 0.07020624 -0.36321256 -0.3199047 -0.49923414 -0.16466789 -0.23324423 -0.66033095
0.26528987 -0.18360718 -0.3283165 -0.23585178 -0.60920966 -0.35685387 0.88554674 -0.7395884
-0.12707697 -0.33467108 -0.5867762 -0.13961342 -0.15558724 -0.28252515 -0.0065415157 -0.3300062
-0.255496 0.65922713 -0.2170384 -0.022501998 -0.2455384 0.2780581 0.21909691 0.07654566
0.42517292 -0.08350416 0.16555691 -0.59321296 -0.18584596 -0.32291538 -0.46177387 0.0064780344
-0.5374212 -0.16283312 0.13659875 -0.13832167 0.0953522 -0.46221682 -0.30785155 0.6911337
-0.8648742 -0.29360947 0.3444194 -1.0247523 0.42653364 -0.34655273 -0.39541224 0.27437127
-0.31151095 -0.32929456 -0.51567036 -0.2548818 -0.16960211 -0.6818293 -0.35950178 -0.6006684
0.6118345 -0.24781634 -1.1492364 -0.3679211 -0.073680475 -0.18968132 -0.087130815 0.2379409
0.3038041 -0.37800613 -0.49576607 -0.49328285 0.50747555 -0.621634 0.2693586 -0.52274835
-0.526208 -0.32059878 -0.45684835 0.48376632 -0.20020732 0.6369601 -0.32434538 -0.036894254
-0.38027644 -0.47879767 0.16344243 0.2700103 -0.3031606 -0.39001685 -0.039115105 0.059468064
0.5628694 -0.36303446 0.12166484 0.36192098 -0.23561344 0.64721966 -0.8602826 0.40356624
-0.7357017 0.3212384 -0.45067957 0.5539233 0.030461041 0.06459037 0.0848259 -0.19587652
-0.6564082 0.39021188 0.7286837 -0.31948495 -0.4223713 -0.3540869 0.76867676 -0.37425274
0.09221695 0.46838665 0.15639624 0.06619018 -0.23565342 -0.43606466 0.076408096 0.46323332
-0.2545355 0.2469066 -0.32360873 0.16850817 0.07067998 -0.46274626 -1.1249084 0.00858299
0.1443287 -0.23579514 -1.1522956 -0.022636821 0.021943545 0.5639632 -0.060755346 -0.3147641
0.35672402 0.46249226 -0.11240687 -0.041183833 0.13801892 -0.8001435 0.2275017 -0.72638553
-0.5281253 -0.16966961 -0.20191844 0.36126503 0.15602867 0.31959826 -0.23699076 -0.02352146
-0.1360479 0.047611035 -0.32883263 0.14188695 -0.08998223 -0.36477587 0.36936215 0.31376967
00000000: 81b9 423e aabf 50bc fb2f e3be dad0 953d
00000010: 8ec7 793e f3f4 6f3e 3588 42bf 7642 c6be
00000020: b7fd e43e a780 5fbe afe4 ee3d 1514 66bc
00000030: d67e 44be 6791 153f cea9 34be 50a7 493e
00000040: d720 d63e fa3a 223e e15a 19bf d6c2 95be
00000050: fd38 16bd bf3c 1dbf 38f1 1fbf ad8e 1ebf
00000060: 539e 5abe e0e8 97be 8ddd a23e bcb2 29be
00000070: 6d27 763e 1577 cdbd 0cc6 bbbe 939f 30be
00000080: c414 00bf 97b3 3bbe 8dd5 a23e 8b45 e9be
00000090: fd45 173f 9e4c 92bd 98da 5dbf a554 70be
000000a0: acae 85be 0510 6f3e f63e 0c3f f468 133f
000000b0: af91 20be 99da 0ebe 73fb 9d3d ee3a 2cbd
000000c0: 4e4e 7cbe 2095 46be e393 47bf 7472 d8be
000000d0: d1b8 52bf a537 f53d 00a2 1a3f 6363 f93e
000000e0: b97c 03bf c0be 18bf eafb dbbe c9c2 83be
000000f0: fe3c 9ebe b1b1 833d 309d ec3e fa57 38bd
00000100: 1214 a93e 4f40 bf3e 1461 8bbe 6aa1 b6be
00000110: 002f 7a3d 81fc 4dbf 9170 ccbd 3bf8 13bf
00000120: 17e0 62be 5f6b c83e 0112 0bbe ee7d be3e
00000130: 0076 853e d6ed 08bf 370c 94bd 9839 843e
00000140: 0a38 9f3e 680b 27bf 0b31 4ebe 64bc 9ebd
00000150: d576 8e3e 5ed6 4ebe c404 633d 1425 08bf
00000160: 5abb f6be 4ac8 8f3d fff6 b9be 8dca a3be
00000170: 9e9b ffbe b39e 28be 93d7 6ebe 730b 29bf
00000180: 13d4 873e 8503 3cbe 1a19 a8be 2183 71be
00000190: 2af5 1bbf 8db5 b6be 31b3 623f aa55 3dbf
000001a0: 7720 02be 025a abbe f736 16bf d2f6 0ebe
000001b0: 4352 1fbe 23a7 90be 365a d6bb 93f6 a8be
000001c0: 5fd0 82be 1cc3 283f 503f 5ebe 1c56 b8bc
000001d0: 6b6e 7bbe a25d 8e3e f15a 603e f9c3 9c3d
000001e0: 44b0 d93e 3b04 abbd c087 293e cedc 17bf
000001f0: 674e 3ebe 2a55 a5be a06d ecbe b145 d43b
00000200: 7094 09bf babd 26be 8be0 0b3e 32a4 0dbe
00000210: 0448 c33d afa7 ecbe b89e 9dbe 23ee 303f
00000220: 6568 5dbf fb53 96be bd57 b03e 152b 83bf
00000230: 9e62 da3e 5c6f b1be 7973 cabe 647a 8c3e
00000240: 5d7e 9fbe 4c99 a8be f902 04bf de7f 82be
00000250: 2dac 2dbe 5d8c 2ebf 9e10 b8be 67c5 19bf
00000260: 30a1 1c3f 91c3 7dbe 2e1a 93bf 2860 bcbe
00000270: cae5 96bd d23b 42be a471 b2bd c7a6 733e
00000280: 368c 9b3e 058a c1be 0dd5 fdbe 928f fcbe
00000290: ebe9 013f 6823 1fbf 5fe9 893e d6d2 05bf
000002a0: 91b5 06bf 8625 a4be 07e8 e9be 38b0 f73e
000002b0: 2603 4dbe d10f 233f 9910 a6be 6e1e 17bd
000002c0: 98b3 c2be f824 f5be 745d 273e ca3e 8a3e
000002d0: de37 9bbe 4ab0 c7be 2937 20bd c994 733d
000002e0: 3618 103f a7df b9be 6a2b f93d b54d b93e
000002f0: a644 71be 30b0 253f 7b3b 5cbf 3ca0 ce3e
00000300: f256 3cbf 5c79 a43e 79bf e6be ebcd 0d3f
00000310: 6f89 f93c f547 843d 34b9 ad3d db93 48be
00000320: 5e0a 28bf dac9 c73e 048b 3a3f 8893 a3be
00000330: 0d41 d8be e14a b5be 00c8 443f 0e9e bfbe
00000340: 3edc bc3d 60d0 ef3e 5626 203e b88e 873d
00000350: 214f 71be de43 dfbe d97b 9c3d eb2c ed3e
00000360: 7a52 82be 15d5 7c3e 0bb0 a5be 688d 2c3e
00000370: aac0 903d 14ed ecbe 00fd 8fbf ab9f 0c3c
00000380: e7ca 133e 4874 71be 6c7e 93bf db70 b9bc
00000390: f3c2 b33c e45f 103f 99da 78bd c328 a1be
000003a0: 88a4 b63e c9cb ec3e 9335 e6bd 61b0 28bd
000003b0: d554 0d3e 34d6 4cbf 35f6 683e 67f4 39bf
000003c0: 3833 07bf dfbd 2dbe b5c3 4ebe bbf7 b83e
000003d0: fbc5 1f3e 62a2 a33e b5ad 72be 14b0 c0bc
000003e0: 2450 0bbe ca03 433d c05c a8be d04a 113e
000003f0: 9a48 b8bd e7c3 babe 091d bd3e 6ba6 a03e

2.bias f4 [2]
-0.13786978 0.14578323
00000000: bc2d 0dbe 3348 153e
